…
(keras.layers.LeakyReLU(LRU))\r\nmodel.add(keras.layers.Dropout(0.01))\r\nmodel.add(keras.layers.Conv1D(filters=6, kernel_size=2, strides=1, padding=&quot;same&quot;))\r\nmodel.add(keras.layers.LeakyReLU(LRU))\r\n\r\nmodel.add(keras.layers.Flatten())\r\n```\r\nFor better readability, the output of `model.summary()` is:\r\n```\r\nModel: &quot;sequential&quot;\r\n_________________________________________________________________\r\nLayer (type)                 Output Shape              Param #   \r\n=================================================================\r\nconv1d (Conv1D)              (None, 6, 6)              18        \r\n_________________________________________________________________\r\nleaky_re_lu (LeakyReLU)      (None, 6, 6)              0         \r\n_________________________________________________________________\r\nmax_pooling1d (MaxPooling1D) (None, 5, 6)              0         \r\n_________________________________________________________________\r\nconv1d_1 (Conv1D)            (None, 5, 12)             156       \r\n_________________________________________________________________\r\nleaky_re_lu_1 (LeakyReLU)    (None, 5, 12)             0         \r\n_________________________________________________________________\r\nmax_pooling1d_1 (MaxPooling1 (None, 4, 12)             0         \r\n_________________________________________________________________\r\nconv1d_2 (Conv1D)            (None, 4, 24)             600       \r\n_________________________________________________________________\r\nleaky_re_lu_2 (LeakyReLU)    (None, 4, 24)             0         \r\n_________________________________________________________________\r\nmax_pooling1d_2 (MaxPooling1 (None, 3, 24)             0         \r\n_________________________________________________________________\r\nconv1d_3 (Conv1D)            (None, 3, 48)             2352      \r\n_________________________________________________________________\r\nleaky_re_lu_3 (LeakyReLU)    (None, 3, 48)             0         \r\n_________________________________________________________________\r\nmax_pooling1d_3 (MaxPooling1 (None, 2, 48)             0         \r\n_________________________________________________________________\r\nconv1d_4 (Conv1D)            (None, 2, 24)             2328      \r\n_________________________________________________________________\r\nleaky_re_lu_4 (LeakyReLU)    (None, 2, 24)             0         \r\n_________________________________________________________________\r\ndropout (Dropout)            (None, 2, 24)             0         \r\n_________________________________________________________________\r\nconv1d_5 (Conv1D)            (None, 2, 12)             588       \r\n_________________________________________________________________\r\nleaky_re_lu_5 (LeakyReLU)    (None, 2, 12)             0         \r\n_________________________________________________________________\r\ndropout_1 (Dropout)          (None, 2, 12)             0         \r\n_________________________________________________________________\r\nconv1d_6 (Conv1D)            (None, 2, 6)              150       \r\n_________________________________________________________________\r\nleaky_re_lu_6 (LeakyReLU)    (None, 2, 6)              0         \r\n_________________________________________________________________\r\nflatten (Flatten)            (None, 12)                0         \r\n=================================================================\r\nTotal params: 6,192\r\nTrainable params: 6,192\r\nNon-trainable params: 0\r\n```\r\n\r\nI saved the trained model with `model.save(&#39;my_model.h5&#39;)`. In Eclipse I am using *DeepLearning4J* as it provides keras features. I load the model with \r\n\r\n```\r\nMultiLayerNetwork model = KerasModelImport.importKerasS
…
